cuda
tilt dataset used!
=============================================================================================================================
Layer (type (var_name))                       Input Shape          Output Shape         Param #              Trainable
=============================================================================================================================
Sequential (Sequential)                       [16, 1, 820, 820]    [16, 2]              --                   True
├─ResNet (0)                                  [16, 1, 820, 820]    [16, 1000]           --                   True
│    └─Conv2d (conv1)                         [16, 1, 820, 820]    [16, 64, 410, 410]   3,136                True
│    └─BatchNorm2d (bn1)                      [16, 64, 410, 410]   [16, 64, 410, 410]   128                  True
│    └─ReLU (relu)                            [16, 64, 410, 410]   [16, 64, 410, 410]   --                   --
│    └─MaxPool2d (maxpool)                    [16, 64, 410, 410]   [16, 64, 205, 205]   --                   --
│    └─Sequential (layer1)                    [16, 64, 205, 205]   [16, 256, 205, 205]  --                   True
│    │    └─Bottleneck (0)                    [16, 64, 205, 205]   [16, 256, 205, 205]  75,008               True
│    │    └─Bottleneck (1)                    [16, 256, 205, 205]  [16, 256, 205, 205]  70,400               True
│    │    └─Bottleneck (2)                    [16, 256, 205, 205]  [16, 256, 205, 205]  70,400               True
│    └─Sequential (layer2)                    [16, 256, 205, 205]  [16, 512, 103, 103]  --                   True
│    │    └─Bottleneck (0)                    [16, 256, 205, 205]  [16, 512, 103, 103]  379,392              True
│    │    └─Bottleneck (1)                    [16, 512, 103, 103]  [16, 512, 103, 103]  280,064              True
│    │    └─Bottleneck (2)                    [16, 512, 103, 103]  [16, 512, 103, 103]  280,064              True
│    │    └─Bottleneck (3)                    [16, 512, 103, 103]  [16, 512, 103, 103]  280,064              True
│    └─Sequential (layer3)                    [16, 512, 103, 103]  [16, 1024, 52, 52]   --                   True
│    │    └─Bottleneck (0)                    [16, 512, 103, 103]  [16, 1024, 52, 52]   1,512,448            True
│    │    └─Bottleneck (1)                    [16, 1024, 52, 52]   [16, 1024, 52, 52]   1,117,184            True
│    │    └─Bottleneck (2)                    [16, 1024, 52, 52]   [16, 1024, 52, 52]   1,117,184            True
│    │    └─Bottleneck (3)                    [16, 1024, 52, 52]   [16, 1024, 52, 52]   1,117,184            True
│    │    └─Bottleneck (4)                    [16, 1024, 52, 52]   [16, 1024, 52, 52]   1,117,184            True
│    │    └─Bottleneck (5)                    [16, 1024, 52, 52]   [16, 1024, 52, 52]   1,117,184            True
│    └─Sequential (layer4)                    [16, 1024, 52, 52]   [16, 2048, 26, 26]   --                   True
│    │    └─Bottleneck (0)                    [16, 1024, 52, 52]   [16, 2048, 26, 26]   6,039,552            True
│    │    └─Bottleneck (1)                    [16, 2048, 26, 26]   [16, 2048, 26, 26]   4,462,592            True
│    │    └─Bottleneck (2)                    [16, 2048, 26, 26]   [16, 2048, 26, 26]   4,462,592            True
│    └─AdaptiveAvgPool2d (avgpool)            [16, 2048, 26, 26]   [16, 2048, 1, 1]     --                   --
│    └─Linear (fc)                            [16, 2048]           [16, 1000]           2,049,000            True
├─Linear (1)                                  [16, 1000]           [16, 200]            200,200              True
├─ReLU (2)                                    [16, 200]            [16, 200]            --                   --
├─Linear (3)                                  [16, 200]            [16, 2]              402                  True
=============================================================================================================================
Total params: 25,751,362
Trainable params: 25,751,362
Non-trainable params: 0
Total mult-adds (G): 875.38
=============================================================================================================================
Input size (MB): 43.03
…
